classification_models/computer/bilstm/bilstm.pt (torch, 541845 bytes, 18 tensors)

lstm.weight_ih_l0 f4 [256, 1]
00000000: 49b1 4a3e 01c1 ca3d e472 e9bc 4586 89bb
00000010: 9592 0ebe abcb b43b 7608 5f3d 3f45 633c
00000020: 5d5f bebd bab5 6fbd 198f e1bd fca8 87bd
00000030: 4251 c13c 2866 c83d 0278 b33d e5f4 b83d
00000040: 401a a33d 1503 03be 77c3 393e 86bb 0b3c
00000050: 4398 febc 2f05 ce3c bc25 343d d9f9 283e
00000060: b559 1e3d 40e1 adbb 76b7 2bbc 0d83 543d
00000070: dbed f1bc 9e88 8f3d 061c 2f3e 522c fa3d
00000080: 0936 49bd 631e d03d 781a 193e fe16 263e
00000090: 54ce 08bd f569 903e 5981 4b3e d4e2 ad3c
000000a0: 3c90 993d 7481 1f3e 99b7 28bd 472e 523e
000000b0: 2e49 f73d 589b e23d 5c6e ca3d 1853 63bd
000000c0: d1e5 0b3e 9ec2 103e 3af3 e33d 0f65 2ebe
000000d0: 5b3f 07bd 92c7 58bd e01b dfbc 70fd 283e
000000e0: b817 b23d 36e2 ac3c c0bf 04be 97d3 143b
000000f0: ef9b b0bd 8c0d 84bd b9a8 7bbd dc75 2e3e
00000100: 300d 7b3c a1f5 e3bc 771c 653d 111f a5bc
00000110: 0c56 903d beda c2bd 6280 a33c 55c3 e63d
00000120: a5ec 12be 7e06 bc3d 694c 0cbd 9ce8 0fbe
00000130: c0a6 c0bd d09a 3a3c 4c2a 023e 7464 cdbd
00000140: 5440 f43d 511f d2bd 1d4a 4b3d b2ed fcbd
00000150: 053f dabd 2e2e 153e 01fa 7b3d 636b a33d
00000160: c855 333e 8952 593c 171a 0e3e 9d52 fb3d
00000170: 6168 dbbd 34cb c93c 4fce d83d 1c75 0dbc
00000180: 69ec 47bd 1ac2 bebc 3584 f53d 0525 b7bd
00000190: 6a79 193e 498a 323c c48a 763d 15dc 9f3c
000001a0: 85e7 c0bd b65c c0bd 3bbb c13d e707 093d
000001b0: 5451 6f3c 4c77 943d 5dc5 45bd 93b1 34be
000001c0: 956d 04bd f156 3c3d f63d 3cbd 1264 263d
000001d0: 6d8e 72bc fac7 273b 3741 853c 5072 013e
000001e0: 85c0 79bd 13a3 07be 8560 eebc 6bdf 11be
000001f0: ecb6 80bd 7200 03be 0a04 a6bd faf9 4f3c
00000200: b68f e7bd ee12 5c3d 28b4 163e eaa6 963d
00000210: f458 fd3d 6c48 0c3d 2e17 9cbd 15f8 ffbd
00000220: ab9b 20bd a064 9fbb 566b 06bd 3bf8 4cbe
00000230: 9ae8 9ebd cdc9 b1bd cbcc 06be 2862 5b39
00000240: 5a91 17be 5809 1e3e eded 773d b248 223e
00000250: e9bf 3a3e cd97 34bd ab19 053e 80ff 22be
00000260: 38d7 ff3d 4e0a e03d c1b4 eabd cfa5 4c3d
00000270: 709e 50bd f839 373e fef4 c8bd d44e f53d
00000280: c60f 1fbe 8c6e eabc e7eb a13d ef9a 66be
00000290: ef34 cebd 9db1 5fbe 6121 c1bd 7ff4 00be
000002a0: 44be bd3d c711 d23d 7e17 2f3e d380 1bbe
000002b0: d12e 29bd 5eca c33d bb22 7a3c 46cc 0c3d
000002c0: 8fd7 90ba a270 083e 0ada 01be 8f69 183e
000002d0: 8b25 06be 3c19 d6bd 1c2b 8ebd a95f d2bd
000002e0: f59b 203e eeb5 503e 9db3 fd3c 3262 033e
000002f0: 61e9 76bd 1542 5ebe b34d 2bbe 625f 66be
00000300: acbf 823d d38f b53d 71b1 c23c 789c 343e
00000310: a35a 1abe 8352 b2bd 168c 963c 20d6 fdbc
00000320: 4697 97bc 1b4e 53bd ec2c 29bd e3c9 bfbc
00000330: e2db bd3c 4107 e1bd 6b3c 243e 2c79 7e3d
00000340: b0a9 573d 2709 f6bd 7e7d 973d 6a29 8e3c
00000350: 8fff 39bd 6326 d33a bd09 21bd bfd1 d8bd
00000360: 7e8e 5f3c cc8e d03d b7b1 eb3d b808 c63d
00000370: d8b5 b4bd 7e37 153e 71b9 e23d 497c c43d
00000380: f4bf b1bc 6fc8 c73d 6864 793d d7eb 99bd
00000390: d4b9 e93d c86c 283e 8752 023e 573f 4c3d
000003a0: 535e a83c 7078 6bbc d02c bd3d 74fb 733c
000003b0: bd43 ad3d e81c 9f3d 81ad eebd dfe0 14be
000003c0: 085d 13bd ce29 f8bc 1cca c83d 3a65 11be
000003d0: 5bec 07be 492b a3bc c485 d43d ef54 dc3d
000003e0: 18bd 903d a922 aa3d 1a3f 043d cc23 d1bc
000003f0: 1b26 593d 27a1 b23d 12f2 28be 8193 f3bd
0.19794191 0.09900094 -0.028497167 -0.0041969144 -0.13923104 0.005517443 0.05445143 0.01387149
-0.09295533 -0.058522917 -0.11013622 -0.06624028 0.023598317 0.0978511 0.08763124 0.09031085
0.07963991 -0.12794144 0.1814097 0.008528596 -0.031078463 0.025148956 0.0439813 0.1650156
0.03865977 -0.005306393 -0.010480752 0.051882792 -0.029532364 0.070084795 0.17100534 0.12215485
-0.049123798 0.10162046 0.14951503 0.16219708 -0.033399895 0.2820584 0.19873561 0.021226324
0.07498214 0.15576726 -0.041190717 0.20525466 0.12074505 0.11064786 0.09884331 -0.055499166
0.13661887 0.1413674 0.11130376 -0.17030738 -0.033019405 -0.0529247 -0.027234972 0.16502929
0.0869593 0.02110396 -0.12963772 0.0022709125 -0.08623492 -0.06447896 -0.061440203 0.17037147
0.015322968 -0.027827086 0.05593535 -0.020156415 0.07047662 -0.09514378 0.019958679 0.112677254
-0.14348085 0.09180926 -0.034252558 -0.14053577 -0.09406805 0.011389449 0.12711447 -0.100289255
0.11926332 -0.102598794 0.049631227 -0.12350024 -0.10656551 0.14568397 0.06151772 0.07979467
0.17513192 0.013264307 0.1387714 0.122716166 -0.10713268 0.024633028 0.10586225 -0.008633878
-0.048809443 -0.023285914 0.11988107 -0.08942608 0.14987722 0.010897228 0.06019093 0.019514123
-0.09419159 -0.09392683 0.094595395 0.033454802 0.0146067925 0.072493166 -0.048283923 -0.17645864
-0.032331068 0.04598135 -0.045957528 0.04062278 -0.014804465 0.0025601373 0.016266448 0.12641263
-0.060974617 -0.13245802 -0.029098758 -0.14245383 -0.062848896 -0.12793139 -0.08106239 0.012693876
-0.113067076 0.05372899 0.14717162 0.07356055 0.12370482 0.034248754 -0.07621609 -0.1249849
-0.039210957 -0.0048642904 -0.032817207 -0.20016567 -0.07759209 -0.086810686 -0.1316406 0.00020922034
-0.14801541 0.15433252 0.060529638 0.15848044 0.1823727 -0.04409008 0.12998073 -0.15917778
0.124922216 0.109394655 -0.11460257 0.049962815 -0.050932348 0.17893207 -0.098123536 0.11977926
-0.15533361 -0.028617166 0.07906323 -0.2252004 -0.1006869 -0.21845098 -0.09430195 -0.12593268
0.09264806 0.10257297 0.17098805 -0.15185861 -0.041304413 0.09560083 0.015267069 0.034374498
-0.001105057 0.13324216 -0.12680832 0.14884017 -0.13100259 -0.10454032 -0.06941816 -0.10272152
0.15684493 0.203819 0.030969435 0.12830427 -0.06028116 -0.21704896 -0.16728859 -0.22497323
0.06384215 0.08865323 0.023766251 0.17637813 -0.15073638 -0.08707144 0.018377345 -0.030985892
-0.01850475 -0.05158816 -0.041302606 -0.023411697 0.023176137 -0.10987712 0.16038673 0.062127277
0.05265206 -0.120134644 0.073969826 0.017353732 -0.045409735 0.0016109463 -0.039315928 -0.10586881
0.013644813 0.10183486 0.11508506 0.09669632 -0.088237464 0.1457195 0.110705264 0.09594018
-0.021697976 0.097550265 0.06088677 -0.07515686 0.11412397 0.16447747 0.12726794 0.049865093
0.02055279 -0.014371976 0.09237063 0.014891494 0.08460186 0.07769185 -0.11654187 -0.14538907
-0.035977393 -0.030293372 0.09804174 -0.14198771 -0.13273756 -0.0199181 0.10377076 0.10758387
0.07067317 0.08307392 0.03228674 -0.025529765 0.053014856 0.087221436 -0.16498592 -0.118933685

lstm.weight_hh_l0 f4 [256, 64]
00000000: aa4e 91bd 5adf fb3c 6e79 33bc ddd7 4b3d
00000010: bc12 9b3b d4c0 c03c d343 58bb 5fac 3bbe
00000020: 8f61 043d 0e42 023d 8714 093e 0a8f d43c
00000030: 4ff4 fc3c 797e 6fbd 72ba 3a3d 1125 003e
00000040: 843b e6bd 4b38 48b9 57b7 173d 74ec 2d3c
00000050: b5ef 283d 6e1f 7b3d b30b 043e 215a 0cbe
00000060: a5ae bbbd 3d51 013e 6021 c3bd 9e2a 093e
00000070: a56f debc ec63 383e 124b 07be 7a59 0c3e
00000080: 8c4f 61bd 6ec7 933d 1201 113e e4ca 31be
00000090: 177f 923d 0245 3fbe d749 9c3d 5066 8abd
000000a0: c9c3 253d 6301 e53c 4085 a23d 81d4 28bd
000000b0: acdb 743d ff1d dd3c 2560 fc3d 3bf6 39bd
000000c0: 975f 9bbd 7d92 0a3d 4c6f 19bd 3d90 bf3d
000000d0: 6452 26bd bba4 e03d 12bd 85bc 1029 4abd
000000e0: ee15 ad3d 2255 293e 5841 47bd bfa4 00bc
000000f0: f764 09bd 5655 e3bd 7174 3d3d ad87 acbd
00000100: 51b1 b73d cf53 e63d cf16 afbc 98ca 8a3c
00000110: 96f5 52bd 4e72 a43d 5869 e1bd 5eb3 a83c
00000120: 78a1 603c 4e4a 0e3d 3cd1 d8bc 0217 8b3d
00000130: de3a b13c 4167 543b dfc7 8abc 1113 acbd
00000140: d15a 05be 888a c8bd 1bc5 093e ef01 e3bd
00000150: eb49 943d 910f 18bc c0c2 fcbc 1013 3b3d
00000160: 0c00 71bd 5d19 3e3c 4269 5abc bd07 0d3d
00000170: 293a c4bc 1623 f43d ec76 03be c15d 883d
00000180: d80d b6bc c91a 1f3d ebe9 0f3e abce cf3c
00000190: 7d66 76bd 39c0 87bd 2cb4 05bd d8cf e1bd
000001a0: ed37 b2bd c64a bf3c 7364 01bd 84d3 0ebc
000001b0: 0b5f 3abd 2bd9 253e 8cbf bf3d ead8 503c
000001c0: ce04 e63d ef85 1b3e cbd8 debd 4227 b4bd
000001d0: 458f 87bd cccc d5bd 25f0 a3bc a96a a3bd
000001e0: ce1e 573c 0495 cdbc 0e0c 56bc eb9f 01bd
000001f0: 18b8 883c 764a e0bd 5ff6 123d f1df 0bbe
00000200: cc8b 66bd f9fe 483d 0662 a83d aebf 95bd
00000210: b527 ccbd 845b a2bd 3fb4 713d 3733 d1bd
00000220: cb88 cb3d 3f81 063d bbe9 a9bd 30b6 7cbc
00000230: c551 573d 624b 94bc 9d47 c73c 37a4 a13c
00000240: 3ec6 dfbd bb73 1fbe 84c6 e93d c113 ba3d
00000250: 44e6 9fbd 6296 fdbd 4821 673d e12a babd
00000260: c54c 19bd 9a87 0cbd fa84 cebd 49c9 a73d
00000270: f3c9 4ebc e55e b33d 7ac8 8abd 14e4 1ebd
00000280: a1c7 d4bd be33 1fbc 15a2 683d e8a9 bb3d
00000290: 6301 df3d f72b fe3c d069 cebd 95ab b53d
000002a0: aa7d bf3d 433e 78bc f032 8e3d 41af 2bbd
000002b0: d895 9b3b 4ef6 a13d de54 6e3b 7d00 afbd
000002c0: 7a56 4e3d 92d1 6abd e5c6 85bd 5f34 383d
000002d0: 1e5f c53d d2fb 9fbc 0add 08bd 6b10 abbc
000002e0: 21f9 94bd 6eed 39bd 506c dfbd e98f b6ba
000002f0: 256e 853d 443b 97bc 875e 31bd b1a2 12bd
00000300: 0b62 d2bd 798f cd3c 5156 e23b dcc0 c53d
00000310: 6599 063e 53be 933d 2860 703d 2015 16be
00000320: 7e3f dd3d aeb0 f9bd 2bfe b03d 5603 bc3d
00000330: 98b1 c6bc 6203 bd3d 9b6c c3bd 7fc0 a2bd
00000340: 56f1 313d b843 773d 55c7 313e cf78 bebd
00000350: 7fcd 9c3c 2907 94bd 0ab0 bbbd 06b3 3cbd
00000360: b2b8 b23d 871a b5bd 07d9 15be 1219 113e
00000370: 0ae7 38bb c309 a6bd 89b6 f43c 3c24 e43d
00000380: 5aec 29bd 3ef5 7abd 7cb6 0c3e 0bd1 883c
00000390: d81c 20be eeba 103c 84ef 56bd 7e44 173d
000003a0: 8a12 b5bd ea6e a9bd 2db1 133e 0d5e aabd
000003b0: 1972 193c d681 f23d 30d9 eabd aed4 b83d
000003c0: 4028 1b3d d7c9 093e 3c7e bb3d 19b9 c83d
000003d0: 7c37 9f3d c379 f23c d4cd 0abd 0128 57bc
000003e0: 8d37 fb3d 6382 13bd faca ee3d 23a2 2f3d
000003f0: 889a e13c 3e3f 23bc c211 b7bd 219e 8dbd
-0.07095082 0.03074615 -0.010954244 0.04976641 0.004732458 0.023529448 -0.003299941 -0.18327473
0.0323196 0.031801276 0.13386737 0.025947113 0.030878214 -0.058470223 0.045587964 0.1251414
-0.112418205 -0.00019094457 0.03704008 0.010615457 0.041244227 0.06130927 0.12895088 -0.13706256
-0.0916417 0.12628646 -0.0952785 0.13395163 -0.027152846 0.18006867 -0.13212231 0.13706008
-0.055007502 0.072157726 0.14160565 -0.17362553 0.07153147 -0.18678668 0.07631271 -0.06757796
0.04046992 0.027954763 0.07935572 -0.041218285 0.059779808 0.026991842 0.123230256 -0.04540084
-0.07586592 0.03383111 -0.037459657 0.09353683 -0.040605918 0.1096892 -0.016325507 -0.049355567
0.084514484 0.16536382 -0.0486463 -0.0078517785 -0.033543553 -0.11100261 0.046253625 -0.084243156
0.08969367 0.11246454 -0.02137318 0.016942307 -0.05150374 0.080296144 -0.11006421 0.020593341
0.013710372 0.03473883 -0.026466958 0.06791498 0.021634515 0.0032410177 -0.01694101 -0.08402074
-0.13022925 -0.09792048 0.13454096 -0.11084353 0.07240661 -0.009281055 -0.030854583 0.045672476
-0.058837935 0.011602727 -0.0133307595 0.034431208 -0.023953514 0.119207546 -0.12838334 0.06658507
-0.022223398 0.038843904 0.14054076 0.025367102 -0.060156334 -0.066284604 -0.03264253 -0.11025971
-0.08702073 0.023351084 -0.031589936 -0.008717421 -0.045500796 0.16196124 0.093627065 0.012747029
0.11231385 0.1518781 -0.10881194 -0.0879655 -0.06619123 -0.104394525 -0.02001197 -0.07979328
0.013129903 -0.02509547 -0.0130643975 -0.03164665 0.016689345 -0.10951702 0.03587949 -0.13659646
-0.056285664 0.049071286 0.082218215 -0.073119506 -0.09968511 -0.079276115 0.059009787 -0.102148466
0.099382006 0.032838102 -0.08296534 -0.015424296 0.052568216 -0.018102352 0.02432614 0.019731624
-0.109264836 -0.15571491 0.11414817 0.09085799 -0.078075916 -0.12382199 0.056428224 -0.0909021
-0.03742673 -0.034309007 -0.10083957 0.08192689 -0.012621391 0.08758334 -0.06776519 -0.03879173
-0.10389639 -0.009716926 0.0567952 0.091632664 0.10888936 0.031026823 -0.10078776 0.08870617
0.093501404 -0.015151563 0.06943309 -0.041915182 0.0047480874 0.07908307 0.0036366503 -0.08545015
0.05037544 -0.057328768 -0.06532077 0.04497182 0.09637283 -0.019529257 -0.033413924 -0.020881852
-0.0727408 -0.045392446 -0.10909331 -0.0013928387 0.06515149 -0.018460877 -0.04330304 -0.035799686
-0.102726065 0.025092827 0.0069072624 0.09655926 0.13144453 0.07214036 0.05868545 -0.14656496
0.10803126 -0.12191902 0.08642229 0.09180324 -0.024254605 0.09229161 -0.09542199 -0.07946872
0.043443047 0.060367316 0.17361195 -0.09300386 0.019140957 -0.07227928 -0.09164436 -0.046069168
0.08726634 -0.0884295 -0.1463357 0.1416972 -0.0028213882 -0.08107331 0.029872196 0.11139724
-0.041485168 -0.061269037 0.13741487 0.016701242 -0.15636003 0.00883363 -0.052474514 0.036930554
-0.08841427 -0.08273108 0.14423056 -0.0831872 0.009365582 0.118411705 -0.114672065 0.090249404
0.037880182 0.13455902 0.09154937 0.098009296 0.07774255 0.029599076 -0.0338877 -0.013132096
0.12266455 -0.03601302 0.116598085 0.042879235 0.027539507 -0.009963809 -0.08938934 -0.06914926

lstm.bias_ih_l0 f4 [256]
00000000: 0df5 cfbc 536c aabd edc0 d13c 2373 373d
00000010: b135 82bd 3b41 88b9 5860 68bd d511 1bbd
00000020: c7d1 b13d ef90 853c 05a8 f1bd bfb9 c43d
00000030: 56d3 21bc fd03 1dbd 3ebf 9c3c e934 263d
00000040: 75a2 a7bd 984d 123e 4dd0 d03d 8a68 88bd
00000050: 8a3c 893d 02fe a73c b967 a03d 716b 163e
00000060: 8d51 30bc ec4d 3dbc b89c 183e 2104 7c3c
00000070: b1f9 0fbd 46f4 1a3e 52ea 123d 9b06 473d
00000080: 8f95 b73d 1a01 153d 6527 02bd a1cf 473d
00000090: 254f 463d 7153 6e3d 72f4 ac3c cd4f 093d
000000a0: 616e 703c 8d78 dabd e428 d23d 71a3 0a3e
000000b0: 766d b23c f2ea 863d 0ab8 e23d bf12 d63d
000000c0: e0fd a2bc 7141 523d 59bd 01bd 0a63 203e
000000d0: 6259 3c3e 75e9 4d3d 3e96 bcbd 3741 d63d
000000e0: 3789 afbd dc96 ac3d 9075 f93d 44c2 e43d
000000f0: 1274 d3bd d728 95bd fe42 e33d 378d 6c3c
00000100: 6876 9f3d a124 813c d4cf 70bd 1b86 8e3d
00000110: 3834 bb3d e91c d4bd 0b68 c9bd c480 203e
00000120: 82c2 103d 3950 4c3a 918b e93d 2f24 6fbc
00000130: 0553 fdbd 149f d5bd 194c 1bbd 0711 153d
00000140: f698 33bc c5cd 1d3e 0707 cd3d bc03 ac3d
00000150: 9083 a5bc 7774 393d 4059 c73d 9b84 6e3d
00000160: 182c 7bbd 5051 a93c daa4 cb3c 267e d33d
00000170: d81e dabd 3f11 bdbc fd4d f83b 9b17 ad3d
00000180: d40d c5bd 7923 bebc b9f4 87bd 884a 0e3d
00000190: 7b9c ff3c 63f1 afbd 813e 1d3c ddba 163e
000001a0: d5f6 3dbc c2ec 0abe e408 b5bd 1682 84bd
000001b0: fb4c 613c 1886 623c 827b 4fbd c019 183e
000001c0: 11d2 a3bb ea06 f0bc 5fdf ecbd 11a0 3ebd
000001d0: 9ec7 9abb 2e5d 723d ac17 73bd 5e7f 86bc
000001e0: f248 223d df8b 95bc 78c9 cbbc 0f0f dd3c
000001f0: 726e 6cbc 8591 7a3d 80c1 af3d 52cd 463e
00000200: cfdf be3d 9e5b f03c 3272 893c 1aac 67bd
00000210: ffe1 87bd caca ea3d ae72 febd ae1d 2e3c
00000220: b96c c63d 4f34 da3c 8eb4 9dbd 3c16 ca3d
00000230: 5afc 993d 34a6 72bd 7c16 ea3d a9e9 aa3d
00000240: 79cd 05be 1083 9fbd b993 38bc b76e 75bd
00000250: a38c 083e 0363 a5bd 7dba d9bd 8592 e9bd
00000260: 8ff2 9dbd ffc5 9f3d e7cd 883d 3525 c9bb
00000270: aa0e e73d bb9a 0dbd c7a3 ac3c 97f8 21bd
00000280: f0aa 8c3d 18d1 fe3c def8 0abe d7ee d93d
00000290: 4759 d1ba d799 0bbd 9773 3d3d e1ba 923d
000002a0: 656e da3b 90f3 9e3d dae5 c83d 78b9 413d
000002b0: e206 8d3d 2379 0a3d d100 893d a5bd c7bc
000002c0: 52de a03d 182b cb3d 98f1 af3d 1708 f7bc
000002d0: 1c7b 8ebc 32f6 98bd e699 e6bd 44ef 1bbd
000002e0: b553 ccbc 6b57 ce3b 471b 23bc 85b6 a6bd
000002f0: 5156 d8bd c8a4 d43d a1f0 943c a69b 9fbc
00000300: c862 cb3d de91 573d 734e 02bd 480c 08bd
00000310: 5488 84bd 7097 46bd b9eb aa3d 0369 8f3a
00000320: a252 3f3d 4d29 933d 0ea6 853d ec0f d53d
00000330: f5f0 97bb cd68 013e 6d34 483d bd08 973b
00000340: a8da 90bd 4553 3cbd d265 b73d 4b39 0d3c
00000350: a7c3 f03d 29f9 103d b643 b93c 627b ae3d
00000360: 5580 8f3d 110b 223d f409 6ebd a838 28bd
00000370: 7e2b bc3d 212f a5bd 188d b53b e8e3 7b3a
00000380: d7da df3d 254a ec3b f7c7 283d eb52 84bd
00000390: 5c0a 463d 7651 8fbc b119 7f3d f0ec 10bd
000003a0: d8d3 9cbc db96 37bd 9cbf c63d 83a2 16bd
000003b0: ba43 583d 4be4 763d 3315 8f3d 4a0d c4bd
000003c0: cf09 9b3d 3de9 c9bc 2b23 36bd 578d e7bc
000003d0: 7124 183d 7de9 c23c 7f5e ff3d 4ab7 063e
000003e0: af0b c13d b4e7 60bd 710c d7bd 09b1 e1bc
000003f0: c1e4 03be c9aa 4d3d 010d 26bd e27c 433e
-0.025385404 -0.083214425 0.02560469 0.044787537 -0.06357897 -0.00025988542 -0.056732506 -0.037858803
0.0868259 0.016304461 -0.11799625 0.09605741 -0.009877047 -0.03833388 0.01913416 0.040577803
-0.08185283 0.14287412 0.1019598 -0.06660564 0.06701 0.020506863 0.078322835 0.14689423
-0.010761631 -0.011554223 0.14903533 0.015381844 -0.035150234 0.15132245 0.035867997 0.048590284
0.08964073 0.036378004 -0.03177585 0.048781995 0.04841532 0.058185045 0.021112654 0.03352337
0.014674754 -0.106675245 0.102617055 0.1353891 0.02178071 0.06587781 0.11070259 0.10452794
-0.019896448 0.05133194 -0.031674717 0.1566278 0.18393472 0.05027147 -0.09208344 0.104616575
-0.085710935 0.08427212 0.121806264 0.11169866 -0.10324873 -0.0728318 0.11096762 0.014437965
0.07786256 0.015764536 -0.05879195 0.06959172 0.09140819 -0.10357077 -0.09834298 0.1567412
0.035341747 0.00077939365 0.11403573 -0.014596029 -0.1236935 -0.10430732 -0.03791437 0.03639319
-0.010961762 0.15410526 0.10011106 0.0839915 -0.020204335 0.045277085 0.0973382 0.05823193
-0.061321348 0.020668656 0.02485888 0.10326795 -0.10650414 -0.023079513 0.0075776563 0.08451768
-0.09621778 -0.023210274 -0.06638474 0.034739047 0.031202545 -0.08590963 0.009597422 0.1471972
-0.011594494 -0.13566878 -0.088395864 -0.064701244 0.013751264 0.013825916 -0.050654896 0.14853573
-0.004999407 -0.029300172 -0.11566042 -0.04653937 -0.0047235033 0.059170894 -0.059348747 -0.016418155
0.039620347 -0.018255172 -0.024876341 0.02698472 -0.014430629 0.061173934 0.08581829 0.19414261
0.09320032 0.029340561 0.016778085 -0.056560613 -0.06634902 0.1146446 -0.12424217 0.010627193
0.09688706 0.02663627 -0.07700454 0.09867522 0.07518835 -0.059240535 0.1143007 0.083453484
-0.13066663 -0.0778867 -0.011265689 -0.05992004 0.13334899 -0.080755256 -0.10631273 -0.114048995
-0.0771228 0.07801437 0.06679898 -0.0061384686 0.11282094 -0.03457139 0.021074189 -0.039543714
0.06868541 0.031105563 -0.13571498 0.10641258 -0.0015972041 -0.03408226 0.046252813 0.071645506
0.006665992 0.077612996 0.09809466 0.047296017 0.068860784 0.03380693 0.06689609 -0.024382422
0.07854904 0.09920329 0.08591002 -0.030155225 -0.017392687 -0.07468833 -0.112598225 -0.03806998
-0.024942258 0.006297042 -0.009955234 -0.081402816 -0.105633385 0.10382992 0.018181147 -0.019483399
0.099309504 0.052629344 -0.031813096 -0.033214837 -0.06471315 -0.048484266 0.08345742 0.001094133
0.046709664 0.07185612 0.06525813 0.104034275 -0.0046368786 0.12637635 0.048878122 0.004609196
-0.07072955 -0.04597785 0.089549676 0.008619617 0.11756068 0.035393868 0.022615295 0.08519627
0.07006899 0.039561335 -0.05811496 -0.041069657 0.09187983 -0.0806563 0.0055405013 0.0009608851
0.10930412 0.007210987 0.041206326 -0.06461128 0.048349723 -0.017494898 0.06228036 -0.03538221
-0.019143984 -0.0448216 0.09704515 -0.036776077 0.052798964 0.06027631 0.06986465 -0.09572847
0.0757023 -0.02464735 -0.044467133 -0.028265638 0.03714413 0.023792977 0.124691956 0.13155857
0.094260566 -0.05490847 -0.1050042 -0.027550237 -0.12880231 0.0502117 -0.040539745 0.19090608

lstm.bias_hh_l0 f4 [256]
00000000: 1cdd 2d3d 827b 0ebd 3f33 c3bd 6e0d efbc
00000010: 2c92 d8bd 8122 ee3d 8ffb 45ba 0a34 a53d
00000020: 37d3 8cbd 11a0 98bb d439 05bd 1e62 89bd
00000030: db08 88bb 95cb 053e 5f85 a2bd 6310 673d
00000040: b644 1b3d 80a4 dbbc b2c3 903d cefc a3bd
00000050: 8c4e c93d 4a33 afbb 1682 a6bb fab4 873a
00000060: f68e f73d 2cf8 a0bd 3504 113e 1ad2 f2bd
00000070: cf26 273a 0e80 e73d 7a7b 843c 5918 0bbd
00000080: f825 2e3d 8ab5 883d f5f8 7e3d 9359 7ebd
00000090: c457 f43d 3503 d93d e3f3 65bd 81a6 023e
000000a0: fcbc a83c 9f25 903d a71d 643d 3b00 28bd
000000b0: 57b3 943c f4f2 e8bd d439 ba3d 3bd2 cbbb
000000c0: 7346 d6bd 39b7 3dbd c3c9 0ebd e6d5 56bd
000000d0: 0dac 0e3e b48a f3bc 65c5 f3bd d380 a4bd
000000e0: a18a ffbc 5ae7 babd ab86 6b3d 559b 59bd
000000f0: c04f 0fbe cb49 cf3d d2b0 04bc 0eb5 793d
00000100: 06a7 793d b73b bc3d 18b7 0fbd 82a3 eebd
00000110: 778a 2d3c 86d6 f53d 675f ad3d 26ac 94bd
00000120: 1288 423d d766 f03d 39f7 34bd 2d45 173e
00000130: aa93 633d f2b7 c4bc b3f8 8bbc 63f6 8bbb
00000140: 8822 aebd ad22 673d 4b68 be3d 301c 813d
00000150: 06cc 9ebd 441e 6a3d ea22 4cbd e0a3 983d
00000160: bb88 273d 94da 9dbd af23 80bd d877 333d
00000170: 2a4f e9bc b89c 373b 23db 053d 7b54 f93c
00000180: fe4e b4bd b6fb f23d 00e5 963d b2b6 a63c
00000190: 0d37 c73d eaab 323d d68d 643d 0a6c a3bd
000001a0: 3c75 b73d 41c3 1b3d 7f7c 03bc b405 2fbd
000001b0: 3f26 0d3d 4679 293d 4a6d 84bb 24f7 c23d
000001c0: cc8a f6bd e5c4 ceb8 05d7 f4bd 64f7 81bb
000001d0: 8186 933c 38b2 63bd b6b5 b0bd 9099 4c3c
000001e0: 08fc a13d 465a c93d e38d 5bbc 5fad 78bd
000001f0: 1eba da3d 6711 babb be6f f73c ac1b 3f3d
00000200: 3983 bb3d 142b 383d cef3 34bd 8f89 b83d
00000210: 0810 d23d 083c db3d 6181 91bb ef6e 9abd
00000220: bf49 aebc 32d4 f1bd e6ed adbd ec7a debd
00000230: 6e30 953d 38d1 88bd 784e 8dbb fc81 4ebd
00000240: b233 36bd 165c 573d a4fa c1bd 54b3 86bd
00000250: 04e5 a9bd 6980 4d3d 5999 ad3d 7d89 db3d
00000260: f56b cbbd 9146 bf3d e628 063e 00af fa3d
00000270: b8fc 7cbd b076 2abc d1c3 7d3d e80e c4ba
00000280: 6747 11bd 68a3 a3bd 8552 863d 5351 90bd
00000290: dbb8 e83c d3a3 a1bd 519e 903d 2cda 4dbd
000002a0: 7cde a63b 7228 de3d da96 d43c 64ca 36bd
000002b0: b448 c33d 962f bd3c 06b6 963d 9bb7 e8bc
000002c0: c86e 923d e49a 08be 2474 a93d 5ea6 a13d
000002d0: bd41 babc f8af a43c ab18 84bd e293 a83d
000002e0: 0c01 cfbd 0232 a1bd 83de a0bd 6d77 e33d
000002f0: 69f1 2b3d 20ce 593d 28fd 62bd 2439 bf3c
00000300: 2801 093e 8614 dfbd 60ff 8c3d fc65 4e3d
00000310: 41d2 dbbd 0229 98bd 311e 9bbd 7c29 983d
00000320: 6ffa b5bb 7e83 75bd 6c27 ce3d 220d 023e
00000330: 9c54 94bd bb7f bf3d cf85 8ebd 849f e03c
00000340: 84f6 74bd 9ed1 18bd e434 9c3d f290 ac3d
00000350: 7a07 4abd 103b dfbd 4fd2 5e3d d615 aa3d
00000360: 48ec a0bc 1086 203d 8990 3b3d 471c c83d
00000370: 564e eabd f050 b53d dbff 8dbc 6be8 f83d
00000380: 0df9 bf3d 4607 1f3d dfe4 293d 17ad 76bc
00000390: 64f3 b73d 7992 193e 1c0e aabd 9146 3a3c
000003a0: d505 843d be52 ffbd 78a7 d73d 4481 bbbd
000003b0: f1d1 7fbd 5508 c2bd ef30 c9bd 60d0 f03d
000003c0: 32d0 7fbd 4524 df3d d1cb 5d3d d1ea 293e
000003d0: 8d79 ff3d d0f6 73bc 8d9d a13d a00d bfbd
000003e0: 57e1 973d 4766 523c 6cad 89bc 10cb 9b3c
000003f0: a633 a63d 87be d63d edc4 be3d f3d9 9fbc
0.042447194 -0.034785755 -0.09531259 -0.029181208 -0.10574755 0.11627675 -0.0007552439 0.08066566
-0.068762235 -0.0046577533 -0.032525852 -0.067081675 -0.0041514463 0.13065942 -0.07935595 0.056412112
0.037907325 -0.026811838 0.07068576 -0.08007203 0.09829435 -0.0053466903 -0.0050814254 0.0010353618
0.120878145 -0.07859835 0.14161761 -0.1185648 0.00063763274 0.11303721 0.01617216 -0.033958767
0.04251668 0.06675251 0.062249143 -0.062097143 0.119308025 0.10596315 -0.05614079 0.12758829
0.020597927 0.07038426 0.05569234 -0.041015845 0.018151922 -0.11374465 0.09093061 -0.00622013
-0.10462656 -0.046317313 -0.034860384 -0.052450083 0.1393282 -0.029729225 -0.119028844 -0.08032384
-0.031194033 -0.09126158 0.057501476 -0.05312665 -0.13995266 0.10121497 -0.008098798 0.060963683
0.0609503 0.09191077 -0.03508672 -0.116522804 0.010592095 0.12003808 0.08465462 -0.07259397
0.047493048 0.11738365 -0.044181082 0.14772482 0.055560745 -0.024013493 -0.017086362 -0.004271315
-0.0850268 0.056429554 0.09297236 0.063042045 -0.07753758 0.05715777 -0.049837984 0.07453132
0.04090188 -0.07707706 -0.06256806 0.043815464 -0.028480131 0.0028016996 0.03267969 0.030435791
-0.08804129 0.11864416 0.07367897 0.020350788 0.09727297 0.04362098 0.055799328 -0.07979591
0.089579076 0.038028006 -0.008025288 -0.04273005 0.034460302 0.04137542 -0.0040413486 0.095197946
-0.12038192 -9.85952e-05 -0.11955074 -0.003966259 0.018008472 -0.055589885 -0.086284086 0.012487784
0.07909399 0.098316714 -0.013400528 -0.060712215 0.1068003 -0.005678344 0.03020465 0.04665725
0.09155888 0.044962958 -0.044177823 0.09010612 0.10256964 0.107048094 -0.004440472 -0.0754069
-0.0212754 -0.11808051 -0.08492641 -0.10863289 0.07284628 -0.0668053 -0.0043123327 -0.05041693
-0.044482894 0.052578054 -0.09471634 -0.06577173 -0.082956344 0.05017129 0.08476514 0.10719583
-0.099327005 0.09339631 0.13101539 0.1224041 -0.06176445 -0.010404274 0.061954323 -0.0014958056
-0.035468485 -0.07990152 0.06558708 -0.07046761 0.028408458 -0.07892575 0.070614465 -0.050256893
0.00509244 0.10847558 0.025950838 -0.04462661 0.095353514 0.02309398 0.07358937 -0.028407862
0.07150036 -0.13340336 0.08274105 0.0789306 -0.022736425 0.02010344 -0.064500175 0.082313314
-0.101076216 -0.07870866 -0.07854941 0.11106763 0.041978274 0.05317509 -0.05541721 0.023342676
0.13379347 -0.108925864 0.068846464 0.05039023 -0.10733462 -0.074296966 -0.07574118 0.074297875
-0.0055535357 -0.059939854 0.10066113 0.12700322 -0.072427005 0.093505345 -0.06959116 0.027419813
-0.059805408 -0.03730928 0.076272756 0.084260836 -0.049323536 -0.10899937 0.054399785 0.08304946
-0.019643918 0.039190352 0.045792136 0.097710185 -0.11440723 0.08853328 -0.017333915 0.12153705
0.093736745 0.038825296 0.041478034 -0.015055916 0.0898197 0.14997281 -0.083034724 0.011369363
0.06446425 -0.12466954 0.10529989 -0.09155515 -0.062456075 -0.094742455 -0.098237865 0.117584944
-0.06245441 0.1089559 0.054149453 0.16593482 0.12474356 -0.014890388 0.078913786 -0.09328771
0.07416027 0.012841768 -0.016806327 0.019017726 0.0811532 0.10485559 0.09314904 -0.019513106

lstm.weight_ih_l0_reverse f4 [256, 1]
00000000: d634 963e bf9d ed3d 3214 9a3e 9cef 8ebe
00000010: 38d3 3c3e fe3e 3c3e 0972 cc3d 18d0 cebd
00000020: 8d9a b83d f772 3b3e 5e75 c63c c396 043e
00000030: ee18 073e 3b81 b33e 1648 85be 104f 29bd
00000040: bed9 423b dc30 c43c b9fc 9f3c 79d4 fdbc
00000050: 61b0 e2bd 3b18 c33d 8dd6 26bc 49f2 a73e
00000060: a903 8fbe 13b2 4a3c 3119 823e 65b5 c33d
00000070: bf8a 5bbd c2b7 7bba ad0e 8b3d ad73 083e
00000080: 73cf 323d 01b2 b03d ba2b 5cbe 57a1 12bd
00000090: 9260 013d e36d 0dbe 581f 663e deed f63c
000000a0: e4a0 5c3e 3a26 1ebe 6357 e83b 9592 b3bc
000000b0: e461 943b fb42 643e e635 803c c745 4c3e
000000c0: 76f3 a73e 3049 6fbc 3f23 903e c329 993e
000000d0: 264c 3b3c 7ba6 1a3e 77d5 e63d 8861 543e
000000e0: 75b3 bfbd bef1 213e 6595 823c f0b5 533d
000000f0: 835c 913d 70d4 7d3d 5830 863e d1fd f8bc
00000100: dd5e 023d dea3 733d 2abd c6bd 08ea 07be
00000110: b993 95bd cc9a f8bd 176a bb3d e540 6cbd
00000120: 66fa 5c3d 78bf bf3d ea6c bb3d b005 443e
00000130: 90db 143e d41c 6cbc eff0 1c3c e5bf 013e
00000140: 635b 8abd 2d63 b5bd 4e30 0ebe 4e77 c5bd
00000150: 609e c33d e255 c9bd 0916 143e d683 e8bd
00000160: cb62 95bd 6f11 f43d 5a07 d33d 6b06 bfbc
00000170: ef23 29be 7697 ffbd a6d6 e5bd db34 e73d
00000180: 387d 93bd e494 a8bd f2da c13d c802 c7bd
00000190: 8aa8 44bc d87e fdbc 51ae 0cbe 1ea3 3fbd
000001a0: 5290 51bd 2461 b4bd c4eb c13d 094e b0bd
000001b0: 73ca f4bd 11b3 1fbd ecf2 63bd fa16 063e
000001c0: f90b e4bd 284f 963d 7972 a23c a952 d2bd
000001d0: 7752 d63c 2e10 f53d 51f4 a03c c621 843d
000001e0: 10d5 06be d365 54bd 7c7f 98ba ca4e cebc
000001f0: 204f 7e3c 71f6 7f3d eac0 023e 4e80 f3bd
00000200: 54bf 25be 164a 3dbe 2e6c 69be 2114 30be
00000210: db36 32be 3002 0b3e 630e a73d 9cbc 1bbc
00000220: 055c d03d f7a3 333e d4ea bdbd 9d83 c03d
00000230: f00e 8cbd f684 293e def7 69be 9096 27bc
00000240: 49a2 c0bc bc53 f23d 90f7 633d 8a74 c8bd
00000250: bd63 68bd eca2 f03d 9322 f93d cd9b 693e
00000260: 30fb debd 8338 8bbd 1fd9 f0bd 5072 a8bd
00000270: f542 153e 19ec 2e3d 9fbb 1f3e 1dbc 87bd
00000280: 16fa e5bd 0731 e23c 5fbf f4bd 8dc9 bd3d
00000290: a5d6 653d f4bf 2a3d c941 4abe 0446 f3bd
000002a0: a41e d43d 0a5e d9bd 1f0f 0e3e 6a70 f53b
000002b0: 1b9d 36be 42c6 1ebe d445 b13d a5da c73d
000002c0: e3cb 69be 7465 743d 1428 323e 5003 3e3e
000002d0: c548 e1bd 3503 0dbe 97e5 00be de51 2abe
000002e0: 0942 dfbd 25a0 d63d ee9e 6e3d a9d0 373e
000002f0: 7278 cd3d c902 aebd c7a7 643e 6146 d93d
00000300: a809 83bc 177e 403e 2c73 da3d 8d3d 3fbd
00000310: 354e acbd 3d97 9bbd d1e5 383d 15ef 903d
00000320: c945 423d 565a 5d3e fbfc cd3d da09 2b3e
00000330: bdcd b73d a170 70bd 72e2 e4bc e567 183e
00000340: faec a6bd a6fa a7bd f0ae 073e 0d1c 153e
00000350: 4467 15bd 63cb 3bbd dadb e43d 3e3c 343e
00000360: c3cb 45be 5255 5ebd 52ee 3e3e bf98 8b3b
00000370: b338 c4bc 1b45 a7bd 2fe4 cd3c 4be8 c33d
00000380: d5b3 e13c 06d8 153c 304e b4bd 04c3 10be
00000390: 5440 b33d eaf0 28bd c55c 693e 8363 223e
000003a0: 661c 893d 3e31 02bd 9597 34bd 6b71 bb3d
000003b0: 17f4 9cbc ac0d 2f3e 08f5 e83d b258 123e
000003c0: bfe9 013e dfee ba3d 9845 753d e0f4 723e
000003d0: ebba f93d 3ab8 103e 8079 b93d 42c9 613e
000003e0: c3ab abbd 7afc 3a3e 3b7c 1ebe 9266 943d
000003f0: 9ece 143c bb21 fe3d c38b 383e 2a6a 90bc
0.29337186 0.11602353 0.30093533 -0.27917182 0.18439949 0.18383405 0.09982688 -0.100982845
0.09013853 0.18305574 0.024225887 0.12948136 0.13193104 0.35059533 -0.2603156 -0.041335166
0.0029731835 0.02394908 0.019529687 -0.030985104 -0.11068798 0.09526106 -0.010182989 0.32802036
-0.2793248 0.012371558 0.25409845 0.09556083 -0.053599115 -0.0009602272 0.067899086 0.13325377
0.04365487 0.086277016 -0.21501055 -0.035798397 0.031586237 -0.1381145 0.22472894 0.03014272
0.2154575 -0.1544427 0.0070904954 -0.021920482 0.004528271 0.22291176 0.0156507 0.19948493
0.32802933 -0.014604852 0.2815189 0.29914674 0.011431729 0.1510257 0.11271184 0.2074033
-0.093604006 0.15814874 0.015940377 0.05168718 0.07097723 0.061970174 0.26208758 -0.030394467
0.03182875 0.059482448 -0.09704049 -0.1327287 -0.073035665 -0.121389 0.091510944 -0.057679076
0.053949736 0.09362692 0.09151633 0.19142795 0.14536881 -0.01441117 0.009578927 0.12670858
-0.06755712 -0.08856807 -0.13885614 -0.09641896 0.09551692 -0.09830834 0.1446153 -0.11353271
-0.07294234 0.11917388 0.103041366 -0.02331849 -0.16517614 -0.12480061 -0.112225816 0.11289378
-0.07201618 -0.08231524 0.09465589 -0.09717327 -0.0120030735 -0.030944273 -0.13738371 -0.04678642
-0.051163025 -0.088075906 0.09468797 -0.08608634 -0.119526766 -0.03898913 -0.05565159 0.13094702
-0.11135096 0.073393166 0.019829975 -0.102696724 0.02616237 0.11965977 0.01964775 0.06451754
-0.13167214 -0.05185492 -0.0011634673 -0.025184054 0.015521795 0.062490884 0.12768903 -0.118897066
-0.16186267 -0.18485293 -0.22795174 -0.17195179 -0.17403738 0.13575053 0.08157041 -0.009505417
0.10173801 0.17543016 -0.092733055 0.09400103 -0.068387866 0.16554627 -0.2284846 -0.010228768
-0.023514884 0.11832377 0.055656016 -0.09787853 -0.056735743 0.11749825 0.12164798 0.2281334
-0.10887754 -0.06797888 -0.117601626 -0.082249284 0.14576323 0.04270563 0.15598916 -0.06627677
-0.11229341 0.027611269 -0.11950564 0.092669584 0.056112904 0.041686967 -0.19751658 -0.11878589
0.10357407 -0.1061364 0.13872956 0.0074902074 -0.17833368 -0.15505317 0.08655897 0.097585
-0.22831683 0.059667066 0.17398101 0.18555951 -0.11000208 -0.13770755 -0.12587582 -0.16632792
-0.10901267 0.10479764 0.058257036 0.17950691 0.10032739 -0.08496625 0.22329627 0.10609127
-0.015995815 0.187981 0.106664985 -0.04668956 -0.08413354 -0.07597206 0.045141045 0.07076851
0.047429834 0.21616492 0.10058018 0.16702977 0.08974788 -0.05870116 -0.027940009 0.14883383
-0.081506684 -0.08202104 0.13250327 0.14561482 -0.036475435 -0.04584826 0.11174746 0.17601106
-0.1931601 -0.054280587 0.186456 0.004260152 -0.023952818 -0.08167478 0.02513322 0.09565791
0.02755157 0.009145742 -0.088039756 -0.14136893 0.08752504 -0.04124538 0.22789295 0.15858273
0.0669487 -0.031785242 -0.044089872 0.09152492 -0.01915936 0.17095059 0.11374861 0.14291647
0.12686823 0.09127592 0.059880823 0.23726225 0.12193855 0.14132777 0.090563774 0.2204943
-0.0838237 0.18260375 -0.15477078 0.07246126 0.0090824645 0.12408777 0.18022065 -0.017628748

lstm.weight_hh_l0_reverse f4 [256, 64]
00000000: f17b 603b 427b 8fbc e64b efbd 20f1 0fbe
00000010: 33fd 05be e938 1ebd 1c4d a5bc 2a82 483d
00000020: 315c dcbd a9f3 c4bd f53b 973d ca2f 68bc
00000030: 84c4 fa3c ad75 763c b0fe 753d 7457 38bd
00000040: 9f8e 3bbd b77c 4b3d f818 e63b a302 cd3d
00000050: d500 10bd 61bd 5fbd 9567 0e3e 5d68 cdbc
00000060: 7d81 0bbd 1141 89bd 60f9 e13d 1781 113e
00000070: cbff 103e 00b9 263c 7de4 933d 6e80 213d
00000080: 86d3 ddbd 1a4f bebd e486 6ebd c1b3 373d
00000090: 66e6 ab3c c1d5 d3bd 845e d4bc 484b 05be
000000a0: 6716 453c 01ae 22be cf04 73bd 196e f03d
000000b0: a421 efbb a84d 7f3d f053 203c f8b7 11bc
000000c0: c14e d63d 6f5d 2bbd 1152 843d 87d7 9dbc
000000d0: bb33 0ebe 903a 18bd b7f2 ecbc 1513 79bd
000000e0: fef8 babc e038 fa3d bff6 4a3d 7952 ca3d
000000f0: cbad fd3c 1bc9 963b 157a 033e e98c 353d
00000100: 1198 f43d a0f1 b53d 0c4b e73b 89a6 30bd
00000110: 9bf3 ecbc 9e4a 9a3d 4d3e 5d3d 6b95 20be
00000120: 2c73 f8bd 4491 c0bd 4b15 ed3c 41a1 7c3d
00000130: 3834 293e e909 76bd a43d 11be edbc ea3d
00000140: 0ce0 603d 0973 553c 273d e5bd 3b82 96bd
00000150: a3b6 883c ed6d 533c 5bc4 07bd dae1 9b3d
00000160: f84c dcbc 79bf 2dbd 6c7a a33c f926 9e3d
00000170: 88b2 db3d 1882 80bd 9589 a83c b952 abbd
00000180: 94bc b7bd 46b1 173d 7b10 15be 2a06 203e
00000190: 3810 293e 87a0 af3d f7a1 74bd eb02 d7bc
000001a0: b83d 5cbd 5e92 503d b5f0 293e a7f7 163e
000001b0: 80dd 403b 894a 5fbd bdc2 d2bb 2d31 a23d
000001c0: 943e 92bd a05d 18bd 44ab f7bd 4489 febd
000001d0: c743 5dbc e80b 63bd 7924 69bd de75 1f3d
000001e0: 4332 6dbb 7a95 353c b8cb 07be 53bf fe3c
000001f0: a589 91bc c65a df3c 75a6 dbbd 0efa 1bbd
00000200: fc88 a8bd 3b41 af3d 7e7c a73d 0f64 c1bd
00000210: bbcd 91bc 7a0f e13d b3f6 e63c cfbd 2fbc
00000220: 84d0 a7bc 6442 903d a87f 27bd f6e7 ed3c
00000230: 9387 833d e710 d5bd 333c 3dbc ec0e 6cbd
00000240: 7eb7 e8bd 16b3 69bd 6f7d 56be 9a6f 143d
00000250: 0582 1bbd 1bf7 0d3e 05c6 d73d e8b9 46bd
00000260: 8910 05be 9b4d 23be d452 8e3d 67df 933d
00000270: d48f cf3c eda3 bd3c 782a bf3d 1194 5f3d
00000280: fdf4 d53d 1abe c7bd 6469 0a3d 3292 cc3d
00000290: 0f9f cbb9 b709 d13d 2338 dabc a740 263c
000002a0: 9f44 dfbd 5ae5 0dbe 2dec de3c e334 66bd
000002b0: 48e3 e73c d97e 823c deef 62bd 6e25 b63d
000002c0: a10a 25bb f5a1 873d 50ca fe3d 465c 933d
000002d0: 2157 343d f29c 3e3d 044b a6bd 73c3 10bd
000002e0: e304 d03c 3e34 083e e579 23bd 2a03 f43d
000002f0: bc0e a1bd e43d 153d 837a 9ebc de9d a33d
00000300: 5d54 063c 9c68 2f3d 0e43 4b3d 8743 edbd
00000310: f257 e4bd d98b 13be eb65 193e 839e 5e3d
00000320: f7fe 803d 9b2b 05be 965a 713d 6d7e 8dbd
00000330: 6664 e0ba 9508 b8bd 3526 bf3d 18f1 e8bc
00000340: 9e7b c2bd 4558 bf3d 2f62 5fbc 3be2 b4bd
00000350: a435 28bd 14e6 6cbd f6ec 913d 1d87 81bd
00000360: d5aa 8c3d 68d5 b0bd 10e2 023c 2285 fc3d
00000370: 5eac 20be ba40 f6bd 764a 563d dc0c 353d
00000380: 5ab8 593d 7b6d 883b 7c0f 19be f225 7ebd
00000390: 159a 8ebd 70e0 e6bd 5f1e db3d 8c14 233d
000003a0: 6c0f b5bc 4f9d 03bc 3531 1dbd 7f38 d3bb
000003b0: 66b1 fa3d d9c7 cebd b8aa 923d 1a3c 5b3e
000003c0: 53b4 0c3d 6e18 22bd f99d ad3d b6f1 633d
000003d0: 66c9 96bd a5c0 973d d80c b73c 57d9 063d
000003e0: 98a3 a23d 7ce3 983d 076f 7c3d 280c a93d
000003f0: 6d94 133e 049b 0a3d 5c60 8c3c efd8 3ebd
0.0034253562 -0.017514829 -0.11684398 -0.14056826 -0.13084869 -0.038628493 -0.02017837 0.04895226
-0.107597716 -0.09616787 0.07384483 -0.01417155 0.030611284 0.0150427045 0.060057342 -0.045005277
-0.04579031 0.049679484 0.0070220195 0.100102685 -0.035157043 -0.054623965 0.13906701 -0.025074178
-0.034059037 -0.067018636 0.11033893 0.142094 0.14160077 0.010175943 0.07221315 0.03942912
-0.108313605 -0.09292431 -0.05823411 0.04484916 0.020983886 -0.10343505 -0.025923975 -0.13016999
0.012029267 -0.1588669 -0.059330758 0.117397495 -0.0072977114 0.06232992 0.009785637 -0.008893959
0.1046424 -0.041837152 0.064609654 -0.01926781 -0.13886921 -0.037165225 -0.02892433 -0.060809214
-0.022823807 0.12217879 0.04955172 0.09879012 0.03096666 0.0046016104 0.1283954 0.044323836
0.11943067 0.08883977 0.007058507 -0.04312757 -0.028924754 0.07533763 0.054014493 -0.15681998
-0.12131342 -0.09402707 0.028940817 0.06167722 0.16523826 -0.060068045 -0.1418367 0.11461816
0.054901168 0.013027915 -0.111933045 -0.07349058 0.01668865 0.012904626 -0.033146244 0.07611437
-0.02689217 -0.04241893 0.019955836 0.07722277 0.107274115 -0.062748134 0.020573417 -0.083653875
-0.08971515 0.037034295 -0.14557068 0.15627351 0.16510093 0.0857554 -0.059724774 -0.026246509
-0.053769797 0.050920837 0.16595729 0.1474291 0.00294289 -0.05451444 -0.006431906 0.07919536
-0.07140842 -0.037198663 -0.12093213 -0.12428525 -0.013504929 -0.055431277 -0.05691955 0.038930766
-0.0036193288 0.011083001 -0.13261306 0.03109709 -0.01776583 0.027264964 -0.107251085 -0.038080268
-0.08229253 0.085573636 0.08178042 -0.09442913 -0.017798295 0.1098928 0.028193807 -0.010726406
-0.02048517 0.07043913 -0.040893227 0.029041272 0.06422343 -0.104036145 -0.011549997 -0.057631418
-0.11363123 -0.057055555 -0.20946287 0.036239244 -0.037965793 0.13863795 0.10535816 -0.048517138
-0.12994589 -0.15947573 0.06949392 0.07220345 0.025337137 0.023149455 0.09334272 0.054584567
0.104471184 -0.09753056 0.033791915 0.09988822 -0.00038837685 0.10206931 -0.026638096 0.01014725
-0.1090176 -0.13857022 0.027212227 -0.05620278 0.028306618 0.015929626 -0.055404536 0.08893858
-0.0025183337 0.06622688 0.12440932 0.07195334 0.044028405 0.046536393 -0.08119777 -0.035342645
0.025392955 0.13301179 -0.03991117 0.11914666 -0.078641385 0.036435977 -0.019345528 0.07989095
0.008198825 0.042824373 0.049624495 -0.115851454 -0.11149587 -0.14408816 0.14980285 0.054350387
0.06298631 -0.13004915 0.05892428 -0.069088794 -0.0017119765 -0.08986012 0.09333459 -0.028435275
-0.09496234 0.09343008 -0.013634249 -0.088322125 -0.04106678 -0.057836607 0.07125275 -0.06324599
0.06868521 -0.08634454 0.007988468 0.123300806 -0.15690753 -0.12024064 0.052317105 0.044201717
0.053154327 0.0041634417 -0.14947313 -0.062047906 -0.069629826 -0.11273277 0.10699152 0.039814517
-0.02210208 -0.008033111 -0.038377006 -0.006445944 0.12240867 -0.10096712 0.07161468 0.21409646
0.034351658 -0.03957408 0.084773965 0.055650435 -0.073626325 0.07409791 0.022344992 0.032922115
0.07941359 0.07465264 0.06162932 0.08254272 0.14412089 0.03383924 0.017135791 -0.046593603

lstm.bias_ih_l0_reverse f4 [256]
00000000: cc60 3e3d 9d65 943d d58d 673d 2d5c 2b3d
00000010: 0df9 96bd 9fc7 4ebd 569b 4f3d c33b 55bd
00000020: a107 acbd 30f9 c63d 742c b43c e7bb 833c
00000030: af0d 033c c39b 7a3d dc20 1f3b 9ddd 013e
00000040: fb82 823c 66ca a4bd 1076 e4bc 5e60 1b3e
00000050: bd8d 7b3d 546b ea3d 9017 8bbc 63e2 ca3d
00000060: 203a 093b d3dc c4bd 1c3b 08bd fa92 e7bd
00000070: b2be 49b9 d2bc 553c ad69 16bd 4b6f 49bc
00000080: b154 d73c 4a2a 8cbd e207 bfbd 260b 853c
00000090: 1d94 99bd 31ce d5bd 9381 9bbc 0e10 a63d
000000a0: b767 733c 1e8e 363d b545 8dbd b3dc c43c
000000b0: a5ab c8bd ab10 e93d 99ab db3d daf6 56bc
000000c0: 572b 1cbd ca91 f83d f12e e53d c855 173e
000000d0: a77e 8abd 2a71 25bd 61c5 3a3e 81d1 053e
000000e0: 9eb5 08bd cd88 383d 95a2 d03d 7c3a ddbc
000000f0: f761 66bd 91dc ddbd 7e96 323c 5186 5b3c
00000100: acb7 453d a46c 383d 6a16 543e 1d71 e03d
00000110: d0e1 fb3d 84cf ec3c a654 953d c321 8abd
00000120: 1a3e 863b 31f9 5c3d d50b 92bd 101c dabc
00000130: 3cab c8bd 2952 093e 0b97 f33d e4d7 02bd
00000140: 13de e7bd 01e7 4d3d 461c 8dbd 0304 223c
00000150: f897 a9bd 0459 be3a 5bc7 3b3e a9b4 cd3d
00000160: ab6e 773d f585 4abd 5143 29bd 4b77 c6bc
00000170: cada a3bd f687 23bd 0a5e 5e3d 2561 f53b
00000180: 62a1 e33d a4e8 d73d 8627 adbd 43d7 ed3d
00000190: b14b 30bd 07bf d2bd 6ec8 fb3d dc76 fe3c
000001a0: 3eb9 83bd 0f2b 9a3c f29c 84bd 363e d03d
000001b0: 7218 013e 6aaa 93bd 4f52 0abd 3f9f 623d
000001c0: 5ed3 1a3d 6bfc d83d 326f d73d 4784 cb3c
000001d0: e82f ca3d 2ae3 a0bd 5217 2d3c 99a8 b23d
000001e0: e768 38bd a659 b5bd 9dfd aebd 3129 843d
000001f0: f34a b23c b778 ddbc b20e 85bd 1e7a 12bd
00000200: a5bd 973d 1836 133b 95b1 e1bd c795 a3bc
00000210: 4580 66bd 61f5 a33d 850f 2dbd 7c9c 7a3a
00000220: a55f cdbd 0ba5 023d b39d b9bd d905 8dbd
00000230: dd8d 69bc 98b3 5fbd 85b9 b5bd 537c a8bd
00000240: acfe 5f3d 5e75 053d 555c ab3d 6a85 c73d
00000250: 88dd a43c 026b 42bc 19ba 633d 9737 753d
00000260: c514 7b3d a9a7 0dbe 0bbb bdbd 336f 0abd
00000270: dc3f 49bd 80c6 92bd 7118 0cbd a3d0 a0bd
00000280: 8142 923d 0375 c9bd 4072 f9bd 98b4 a53a
00000290: 79ad a13d d0e3 993d 04b7 a63d 5766 a43d
000002a0: d41e 64bd b7cb afbd 3923 12bd 34f1 383d
000002b0: 4f2a 923d 4531 a4bd 9c91 e63c 2d59 ba3b
000002c0: 3d83 9bbd 143e e0bc 56a3 a8bc 2f92 7cbc
000002d0: 7366 43bd 9df1 c13c 18a7 bc3d 0a73 e03c
000002e0: d500 7c3d b7d9 0dbd 8102 b0bd 2c22 d93c
000002f0: bf33 433d 0640 363c 713a ed3d 3c56 03bd
00000300: 8625 963d 6bf4 203d f5cd b93d ba65 133c
00000310: c1b5 b7bd 7f9f b73d ba90 b0bd 5c60 50bb
00000320: dcf4 c7bd db2f 303e 9d28 8fbd 09cb cb3c
00000330: a7a5 233b 43b8 ed3d b819 cf3d b2e3 bc3d
00000340: 921d 9a3d 4a46 c7bd 03d9 0d3e 5b07 193e
00000350: 977d f8bd 229a 4fbc f2b1 2dbd 90dc f63d
00000360: 6d6c dabb 9925 b7bd 41d5 3abd 70d9 c93d
00000370: 1487 8b3d 0b99 5fbc b166 6f3c 6679 1bbd
00000380: 164d f83d 8575 23bd bd64 c4bc c42c f13d
00000390: b6a7 a23d 5dc5 2dbd 15d0 4e3d 5256 a93d
000003a0: 5870 26bc f9b3 00bd 8400 32ba f6d3 e63d
000003b0: 9eae 003e 842d 113d 183a 9ebc 1c77 a13d
000003c0: 09cd 0a3e a11d 863b a0cd 52bd 89eb 193e
000003d0: e623 c53c 19ca c23c adb0 10bc 768f 853d
000003e0: 744f ee3b 3518 8bbc 60d4 6b3d c44c 45bd
000003f0: c33e 573c 0a1d fbbc 360b 9fbd 5549 233c
0.04647903 0.07245944 0.056531746 0.041835953 -0.073717214 -0.050483342 0.05068525 -0.052058946
-0.083998926 0.097154975 0.021993853 0.01608081 0.007998868 0.061183702 0.002428106 0.12682195
0.015931597 -0.08046417 -0.027888328 0.1517348 0.06141447 0.114462525 -0.016979009 0.09906461
0.0020939186 -0.096124314 -0.033259496 -0.113073304 -0.00019239893 0.013045507 -0.036721874 -0.012294601
0.026285501 -0.068440035 -0.093276754 0.016240668 -0.074989535 -0.104397185 -0.018982684 0.08108531
0.0148562705 0.044569127 -0.06898061 0.024031019 -0.097983636 0.11380132 0.10726089 -0.013120377
-0.03812727 0.12137182 0.11190594 0.14778817 -0.06762438 -0.040391125 0.18239357 0.130682
-0.03337633 0.04505234 0.1018726 -0.027005427 -0.05624577 -0.10833085 0.010900138 0.013398723
0.048270866 0.045025483 0.20711675 0.10959075 0.1229893 0.028907545 0.07291536 -0.06744721
0.0040967586 0.053948585 -0.07131163 -0.02662471 -0.09798285 0.13410248 0.118940435 -0.03194417
-0.11321654 0.05026913 -0.06890158 0.009888652 -0.08280939 0.0014522378 0.18337767 0.10044224
0.060408276 -0.049444158 -0.041323964 -0.024226805 -0.08000715 -0.039924584 0.0542889 0.007488387
0.11114766 0.105424196 -0.08454804 0.116133235 -0.043040935 -0.10290342 0.12294088 0.031062536
-0.064318165 0.01881936 -0.064752474 0.10168116 0.12606981 -0.07210238 -0.0337699 0.05532765
0.03779923 0.1059502 0.10519256 0.024843348 0.09872419 -0.07855828 0.010564642 0.08723564
-0.045021918 -0.0885499 -0.08544467 0.06453169 0.021764254 -0.0270351 -0.064969435 -0.03576099
0.07409219 0.0022462662 -0.11020199 -0.01996888 -0.05627467 0.08005787 -0.04225113 0.0009560061
-0.10028008 0.03189568 -0.09063282 -0.06885881 -0.014255014 -0.054614633 -0.08873276 -0.08226838
0.054686233 0.032582633 0.0836722 0.097422436 0.020125166 -0.011866333 0.0555974 0.059867468
0.061299104 -0.13833489 -0.09264191 -0.033797454 -0.049133167 -0.07166767 -0.034202997 -0.07852294
0.07141591 -0.09836771 -0.121799946 0.0012642322 0.078944154 0.07514155 0.08140376 0.08027332
-0.055693462 -0.085837774 -0.035678122 0.045151904 0.07136976 -0.0801721 0.028145604 0.0056869
-0.07593391 -0.027373351 -0.020585697 -0.015415712 -0.047705125 0.02367478 0.09211558 0.027398605
0.06152423 -0.034631457 -0.085942276 0.026505552 0.04765677 0.011123663 0.115834124 -0.03206466
0.07331376 0.039295595 0.09072486 0.0089964215 -0.08970214 0.08965968 -0.086213544 -0.0031795716
-0.097635 0.17205755 -0.06990168 0.024877088 0.0024970563 0.11607411 0.10112327 0.09223117
0.07525171 -0.097302034 0.13852315 0.14944212 -0.12133329 -0.0126710255 -0.04240603 0.12053788
-0.0066657574 -0.08942718 -0.04561353 0.09855926 0.068128735 -0.013647328 0.014611886 -0.03795757
0.12124078 -0.039906997 -0.023973817 0.117761165 0.079421446 -0.04242455 0.05049141 0.082684174
-0.010158621 -0.031421635 -0.0006790238 0.11270897 0.12566611 0.035443798 -0.01931481 0.078840464
0.13554777 0.0040928875 -0.05146563 0.15031256 0.02406497 0.023778008 -0.008831185 0.065215036
0.007272655 -0.016979316 0.057575583 -0.048168913 0.013137522 -0.030653495 -0.0776581 0.009966214

lstm.bias_hh_l0_reverse f4 [256]
00000000: ffda 0abc c054 77bc 9e2c a0bc 328a 023e
00000010: a360 133e 7953 9fbd 8853 c3bc f4f8 90bb
00000020: 218e e33d 71e3 083e e243 3e3d d973 033e
00000030: b56c fb3d 1440 363e 4173 9e3d 5a67 253e
00000040: 7036 47bd 1b58 0d3e a782 bdbd 00c7 2d3e
00000050: 380c 87bd fb79 303c cc86 b73d 17c4 0d3e
00000060: d645 003e b76d b9bd 62f6 26bd 856d 3dbd
00000070: a2be a1bd 40c1 fcbd c32f 023d 97ad 93bd
00000080: a9a2 c0bc babf 833d e70c e3bc 74d4 36bd
00000090: 1c8f 283d afb5 8cbd f4db 29bd 8031 c83d
000000a0: 1868 23bd e6f9 cc3d 145a 77bb 5d51 db3d
000000b0: 1c48 463d 54da b8bd 2135 72bd 1505 bbbd
000000c0: b697 873d 90ff bebd 1826 dbbb 315c 823d
000000d0: fc14 82bd 3c39 bcbd 0fbe d23d b51f 9f3d
000000e0: 735b 3ebd 5f97 683d f607 de37 7a4f 013e
000000f0: ae31 2b3d 7198 8bbd 4424 32bd b628 acbc
00000100: 8b43 353e e879 163e ee32 f73d ba2d 95bc
00000110: d2d0 183e cdcb 163e 276b 9a3d 4dbe 4f3d
00000120: 8cb3 c0bc 7c9b 62bc 4c82 c1bd c950 bd3c
00000130: 076d eb3c b63f c93d facb 233e a371 653d
00000140: 446e b3bd 4ffd c2bb 1f96 563d 637e 12bd
00000150: 7f1a 4c3d 44e8 89bd e952 d53d 923a c33d
00000160: d027 013e 9f12 61bd b0c8 8e3d e7b4 87bc
00000170: acf8 73bd a536 ee3c 639b 173e bb8d 283d
00000180: c4bf fd3d da44 95bd de4f 303c 3370 593d
00000190: e776 3abd d1e0 c53d ba7d 353d b336 b6bc
000001a0: cfd0 8bbd ef73 b4bd b27c 053e def5 ce3d
000001b0: 83be 58bd bd47 0dbd 6b73 98bd cbd0 b13c
000001c0: 3be0 873d b314 f8bc f177 50bd 9e96 68bd
000001d0: 3afe 41bd 3ed1 a4bd e759 f73d ee91 85bd
000001e0: 2f87 2f3e c205 623d 2b70 9fbc 8398 ef3c
000001f0: 514a c9bb b2d3 783d 8eb2 9b3d a3bb e83a
00000200: 2d6e 9ebd b383 cdbc 0f14 003e 59ae 01bd
00000210: 9b87 c9bd 7360 9ebd a4ab d03d 4563 c7bd
00000220: 7e89 0cbd 9759 92bd 5fda dabd 1987 81bd
00000230: 9b0a 5a3d fc2e c83d 5240 b4bb 370f f53d
00000240: 5388 6bbd 9135 ef3d 186d f4bd 6c91 b8bd
00000250: d7fe 843d d405 4e3c 136b 3dbd 6215 20bc
00000260: e7da d4bd 3f61 12be d907 893c fb6b c23d
00000270: 1336 8c3c 3a40 03bc 8d63 ee3d 5b38 86bd
00000280: 73af c2bd 458f 6fbd c991 d23c 7adf a73d
00000290: 75b7 943d f0d0 b0bd 887e 02bd cf95 84bd
000002a0: 2493 88bd e74b bd3b 2d81 b03d d042 9f3d
000002b0: 9949 9bbd 6f15 e53b 03bd 2f3c 7ac1 843d
000002c0: a384 143d 7796 ce3d f895 943d 695a e2bc
000002d0: 4123 cd39 fda0 253d a07d c2bd 98a6 ad3d
000002e0: 2ad7 07be aa13 b03d d6d3 883c e743 99bd
000002f0: d3c2 fdbc e31a 9fbc b426 abbb 2907 8e3d
00000300: 5d4e f63c 7578 043e 6583 fe3d affa 2f3e
00000310: f31f 133e 478d cebc 8642 15bd e28d 72bb
00000320: 0ee7 70bd af0a 77bd a7c5 bcbd d451 8cbd
00000330: 2228 573d 6389 81bc aef2 053e 24ee b0bc
00000340: 24ad e8bc d8c0 72bb ada9 56bd c2dd 01bb
00000350: 403f a3bd 49df a7b8 a59a a4bc 2844 edbc
00000360: 3bf2 2c3e c184 9f3d d349 cb3d 70fd bd3c
00000370: b041 fa3d 538a 0bbe 9c6b d43d cc3b 51bc
00000380: 442a da3d 1d1e 6ebd d3c7 6abc 5995 32bd
00000390: 76f9 f3ba bd87 143d 292a e4bd cf01 313d
000003a0: 097e 9e3d a719 ed3d 3ee2 883d a208 a83d
000003b0: 0532 bbbd 2e27 dbbd 493c 183d 346d debd
000003c0: 241e 83bc ffa8 dbbd efdf 203d 9cdc df3d
000003d0: d92b 893d 1690 e43c 82bb 453e 9d2e 96bd
000003e0: 6d22 203e 6525 7e3d 56ee cb3d 4fcd 303e
000003f0: 557b 2f3c 4904 d53d c6ee 22bc 80f9 1b3e
-0.008475064 -0.01509589 -0.019552525 0.1274803 0.14392333 -0.07779593 -0.023843542 -0.004424209
0.11111093 0.13368012 0.046451457 0.12837161 0.122765936 0.17797881 0.07736827 0.16152707
-0.0486359 0.13803141 -0.092534356 0.16970444 -0.065941274 0.01077127 0.08961257 0.13844334
0.1252664 -0.090541296 -0.040762313 -0.046247024 -0.078976884 -0.12341547 0.03178383 -0.07210844
-0.023515062 0.06433053 -0.027716113 -0.044636205 0.041152105 -0.06870591 -0.04146953 0.097750664
-0.039894193 0.10008602 -0.00377429 0.10708878 0.048408613 -0.09026018 -0.0591327 -0.09131829
0.066207334 -0.093260884 -0.0066878907 0.0636524 -0.06351659 -0.09190604 0.10290157 0.077697195
-0.04647393 0.056784984 2.646817e-05 0.12627974 0.041795425 -0.06816185 -0.043491617 -0.021015506
0.17701547 0.14694941 0.12070261 -0.01821028 0.14923409 0.14726181 0.07539969 0.050718594
-0.023523115 -0.013831016 -0.0944868 0.02310981 0.028738512 0.09826605 0.1599578 0.056016576
-0.08761266 -0.005950607 0.05238926 -0.035765063 0.049829956 -0.06733754 0.104162045 0.09532656
0.12612844 -0.0549494 0.06971872 -0.016565753 -0.059563324 0.02907879 0.14805369 0.04115079
0.12390092 -0.07288523 0.010761229 0.053085517 -0.04552355 0.09662021 0.044309355 -0.02224288
-0.068269365 -0.08811175 0.13035849 0.10105489 -0.05291606 -0.034492243 -0.07443889 0.021706006
0.066345654 -0.030283308 -0.050895635 -0.056784265 -0.04736159 -0.08047722 0.120776944 -0.065219745
0.17141412 0.055181272 -0.019462666 0.029247528 -0.0061428924 0.060748763 0.07602416 0.0017756115
-0.07735858 -0.025087213 0.12507652 -0.03166041 -0.09840318 -0.0773324 0.10188988 -0.09735731
-0.03431081 -0.07145994 -0.10686182 -0.06324596 0.05323277 0.097745866 -0.0055008316 0.119657926
-0.057503056 0.11680139 -0.119348705 -0.09012112 0.06493919 0.012574632 -0.046244692 -0.009770723
-0.10393315 -0.14294909 0.016727375 0.09493252 0.017115628 -0.008010918 0.116400816 -0.06553718
-0.095061205 -0.05848624 0.025704281 0.08196922 0.07261554 -0.08633602 -0.03185895 -0.06473886
-0.0666869 0.0057768705 0.08618388 0.07776415 -0.07582397 0.0069910805 0.010726216 0.06482215
0.036259305 0.10087293 0.07255167 -0.027631002 0.00039126913 0.040436734 -0.09496617 0.08479041
-0.13265672 0.085975006 0.016702574 -0.074836545 -0.030976688 -0.019422 -0.0052231196 0.069349594
0.030066663 0.12936576 0.12427405 0.17185472 0.14367656 -0.02521385 -0.036440395 -0.0037010838
-0.0588141 -0.060312923 -0.09217387 -0.06851545 0.052528508 -0.015812581 0.13080856 -0.02159793
-0.028402872 -0.0037041213 -0.05240791 -0.0019816016 -0.07971048 -8.004771e-05 -0.020093272 -0.028963163
0.16889279 0.07788993 0.0992619 0.023192137 0.1221956 -0.13626985 0.10372087 -0.012770604
0.10652593 -0.058134187 -0.014329868 -0.04359946 -0.0018613774 0.036262263 -0.11140854 0.043214615
0.07738883 0.115771584 0.06683777 0.082047716 -0.091404 -0.10700832 0.037166867 -0.108606726
-0.016005583 -0.10725593 0.03927606 0.1093075 0.066978164 0.027900737 0.1930981 -0.073331095
0.15638132 0.06204738 0.09957568 0.17265819 0.010710557 0.10401208 -0.009944623 0.15231895
